…
	 Model Started at 2023-05-03 13:56:13.345715


====================================================================================================
	 Model Started at 2023-05-03 13:56:34.398697
Coarse modelAttributes :
	training : True
	_parameters : OrderedDict()
	_buffers : OrderedDict()
	_non_persistent_buffers_set : set()
	_backward_hooks : OrderedDict()
	_is_full_backward_hook : None
	_forward_hooks : OrderedDict()
	_forward_pre_hooks : OrderedDict()
	_state_dict_hooks : OrderedDict()
	_load_state_dict_pre_hooks : OrderedDict()
	_load_state_dict_post_hooks : OrderedDict()
	_modules : OrderedDict([('pts_linears', ModuleList(
  (0): Linear(in_features=63, out_features=256, bias=True)
  (1): Linear(in_features=256, out_features=256, bias=True)
  (2): Linear(in_features=256, out_features=256, bias=True)
  (3): Linear(in_features=256, out_features=256, bias=True)
  (4): Linear(in_features=256, out_features=256, bias=True)
  (5): Linear(in_features=319, out_features=256, bias=True)
  (6): Linear(in_features=256, out_features=256, bias=True)
  (7): Linear(in_features=256, out_features=256, bias=True)
)), ('feature_linear', Linear(in_features=256, out_features=256, bias=True)), ('alpha_linear', Linear(in_features=256, out_features=1, bias=True)), ('rgb_linear', Linear(in_features=128, out_features=3, bias=True)), ('views_linears', ModuleList(
  (0): Linear(in_features=283, out_features=128, bias=True)
))])
	layer_num : 8
	hidden_dim : 256
	in_feature : 63
	in_feature_view : 27
	use_viewdirs : True
	skips : (1,)
Fine modelAttributes :
	training : True
	_parameters : OrderedDict()
	_buffers : OrderedDict()
	_non_persistent_buffers_set : set()
	_backward_hooks : OrderedDict()
	_is_full_backward_hook : None
	_forward_hooks : OrderedDict()
	_forward_pre_hooks : OrderedDict()
	_state_dict_hooks : OrderedDict()
	_load_state_dict_pre_hooks : OrderedDict()
	_load_state_dict_post_hooks : OrderedDict()
	_modules : OrderedDict([('pts_linears', ModuleList(
  (0): Linear(in_features=63, out_features=256, bias=True)
  (1): Linear(in_features=256, out_features=256, bias=True)
  (2): Linear(in_features=256, out_features=256, bias=True)
  (3): Linear(in_features=256, out_features=256, bias=True)
  (4): Linear(in_features=256, out_features=256, bias=True)
  (5): Linear(in_features=319, out_features=256, bias=True)
  (6): Linear(in_features=256, out_features=256, bias=True)
  (7): Linear(in_features=256, out_features=256, bias=True)
)), ('feature_linear', Linear(in_features=256, out_features=256, bias=True)), ('alpha_linear', Linear(in_features=256, out_features=1, bias=True)), ('rgb_linear', Linear(in_features=128, out_features=3, bias=True)), ('views_linears', ModuleList(
  (0): Linear(in_features=283, out_features=128, bias=True)
))])
	layer_num : 8
	hidden_dim : 256
	in_feature : 63
	in_feature_view : 27
	use_viewdirs : True
	skips : (1,)
Train Render arguments : 

	 {'perturb': 1.0, 'N_importance': 64, 'N_samples': 64, 'use_viewdirs': True, 'white_bkgd': False, 'raw_noise_std': 1, 'ndc': False, 'lindisp': None}

Test Render arguments : 

	 {'perturb': False, 'N_importance': 64, 'N_samples': 64, 'use_viewdirs': True, 'white_bkgd': False, 'raw_noise_std': 0.0, 'ndc': False, 'lindisp': None}
…
